a2/w2v-W.npy (npy, 20128 bytes, 1 tensors)

array f8 [50, 50]
-0.27182647547908506 -0.1850403281694457 0.8152065560794713 -0.42870479995626454 0.6390420592261051 1.0751192588495944 0.1603043604202963 0.0034621402501850557
0.6144173996803692 -0.14477588570946265 0.8969597915243874 0.7224153058506207 0.17556958490189803 -0.6706296532524513 -0.8075521647271229 -0.7065750095417193
0.5777965327709685 0.7106691896484355 0.0077972629917335 0.5247113874811251 -1.0033972479082092 -0.3087317266456703 0.3787512835110226 -0.29653157185145573
-0.46768287932475405 0.2535945254334683 -0.18605398471894066 -0.41511353041948246 -0.24251827443786123 -0.27375772564771517 -0.0722535251560748 -0.10332736774354426
-0.41854259516430553 0.34968126691395524 0.7686343119992111 -0.1504447872026932 -0.49114389438550166 0.30848931918074307 -0.20390218949516076 0.45973646506342947
0.32800600047766865 -0.2869590121900824 -0.8543294132222091 -0.032324951900857817 -0.0303111849875579 0.2754496041751131 -0.0928371906905708 0.2293191431499222
0.5194254917205804 -0.12173966798471995 0.6456103077627875 -0.11580674174448388 -0.30409763271339174 -0.08187835610021904 0.3212297394656125 -0.40069010954537276
-0.20238942995666298 0.0773736404000184 -0.20970418818887035 0.16742189928585313 -0.3253202243581412 -0.24694672331740294 0.10640111295972901 0.5866229662139507
0.48471391557041676 0.4836509681043737 -0.4043155112481045 -0.19445321862548184 -0.02463769787024715 -0.05018141319522027 0.2699932794012222 0.29871446584260297
0.06715394830618959 0.1407163329824648 0.10009768654942934 0.0922874836305633 0.1915574655266328 0.23791913129400233 -0.17836022272180238 0.17395887096911733
0.021543632226331096 -0.16165530698419125 -0.05247551227428521 0.02824088280390801 -0.25655530432532786 0.21824566427128136 0.4041855170873164 -0.33530597463506395
-0.6060448515456598 0.6739478836918333 -0.17844149076731308 -0.011557934162105273 0.5247198513512455 0.17886747932505256 0.22422851893268927 -0.17948352893216088
0.41736505481127456 -0.06797918279740302 -0.20827392010287377 -0.3598701092482466 -0.8849643096700182 -0.2854023478946762 0.14226870579748577 -0.25484834235916204
0.2726621314800629 0.3488799654959284 1.1788353728280767 -0.34474451650912313 0.06481938423454153 0.08535175627233202 -0.22434994669637603 0.029631936098900063
-0.2010301338438992 -0.29968706376136695 -1.1136514221692049 -0.5809272295331684 0.5271906016447258 0.009098705671808243 -0.3363784058664771 1.0173845618321
-0.7867137171969575 -0.22484030276012879 -0.61694630360209 -0.4089654259079532 -0.05741510241608893 -0.5432826559367675 0.20419470695939856 0.2184282838730515
-0.06393430320725446 -0.1467026143224716 0.27857501867530665 -0.329435273204727 0.20710259485138288 -0.13755168928778583 0.020146958896257852 0.1609626814520626
-0.20479283416770516 -0.21081798925915876 0.06056439545682997 -0.6959596847317585 0.7425307752384092 -0.25727978142103713 0.25356210746377583 0.16692044318019666
0.7432197151164139 0.1531021435157281 -0.3054679099895257 -0.014652961475996394 -0.30649699011262416 -0.3192005834076494 0.2343711043859175 -0.01334571106253472
-0.3253319334274051 0.13709051812378362 -0.6510900127963157 -0.1265277815522467 -0.4262414084167817 0.3963308111047866 -0.04996841758894024 0.24774498400216519
-0.05959559292085209 0.261572444797796 -0.002369472265844196 0.00796091244286025 0.7688690544051375 -0.01752482728747595 -0.33871513856638036 0.15267328013485137
0.26945967707544305 -0.7949842675014763 0.6033728152529294 0.10633659982394672 0.20795650513879718 0.07669326857609397 0.18001825864550397 0.013239217547538165
-0.3463648438008484 -0.20838530994474705 0.12621523587269637 -0.3123174285772559 -0.31721048967490706 0.2365281198068238 -0.1705103394097214 -0.2548292544246251
-0.07290089723712213 -0.3887894573938494 0.17192111802543297 0.25046254426182074 0.209142090520788 0.19684317638904106 -0.3225465993558994 0.2425717171841144
-0.2121790880852736 -0.22082685550138823 -0.5025694009034601 0.02719496996135898 0.22480196535543295 -0.21505628473476765 0.3588053348604955 0.49576172279675307
-0.15073589072472943 0.5463955896569271 0.20805405020476547 0.6932191727664907 -0.15654153808798663 0.6593782723300443 -0.278063555994998 -0.4289670392291824
0.36508191420924235 -0.13749162027612014 0.5677480280134325 0.014563179705402649 0.4885456017712876 -0.3543698977367066 -0.22976664591186735 -0.18448689700926607
0.20558351011072745 -0.12352865192379547 0.1576685453422807 0.08874925195456729 -0.05014363405157617 -0.3372798274023091 -0.23249925393545393 -0.006271970078223896
-0.21534453007984217 0.2449507827382035 -0.031546315587092526 0.045797782456006485 -0.40896887507680785 0.6589172639897612 0.02731200740688131 0.07935413556512148
-0.416157951152327 0.04987365289497659 -0.010056692861083155 0.07036023906907611 -0.2995479135467043 0.35406664998010345 0.39439417402435295 0.07938437805720883
-0.1746541895875294 -0.13168547198741037 -0.22765196974173174 -0.07333626968553768 -0.35919639264489284 0.35587888197645173 -0.345416221925617 -0.17123971664710821
0.13640213177685648 0.5466497550069956 0.7906834094824775 -0.45948428170939937 -0.5276860034292427 -0.5286528940707362 0.05991009725790521 -0.9552815510902964
00000000: cba7 97df 9a65 d1bf 70e5 f6c6 66af c7bf
00000010: 6913 3b0f 2c16 ea3f 00d3 dc41 e66f dbbf
00000020: b3a0 2455 0873 e43f b5f0 8040 b033 f13f
00000030: c1a7 b470 da84 c43f a03b c264 a25c 6c3f
00000040: b80e b7ad 4ea9 e33f cc8f 2f27 0488 c2bf
00000050: 3a93 4d05 e5b3 ec3f 9d43 18b4 061e e73f
00000060: a5b8 a96c 1079 c63f a14e 8e51 cc75 e5bf
00000070: d824 2aa3 77d7 e9bf dfe1 c431 439c e6bf
00000080: c5ca 7f27 4f7d e23f 4513 fa4f cdbd e63f
00000090: c0d0 c3d8 05f0 7f3f 363f 2289 6fca e03f
000000a0: 3898 ca45 ea0d f0bf aa91 4bb7 42c2 d3bf
000000b0: 0add ff05 763d d83f ae57 d58e 5ffa d2bf
000000c0: ec54 e62b 84ee ddbf d69b 4b88 e43a d03f
000000d0: 4944 d4f1 9dd0 c7bf 81d7 5157 3891 dabf
000000e0: bc4c b2bc d60a cfbf 32cb ab1f 3f85 d1bf
000000f0: f4e8 90ff 347f b2bf 8283 3d91 a973 babf
00000100: 9bac 8de1 66c9 dabf 8fd5 5a89 2d61 d63f
00000110: a1d7 13fc a698 e83f d5d2 7158 c641 c3bf
00000120: fe02 01cd e66e dfbf 72fb 42fc 49be d33f
00000130: 1275 bb89 7719 cabf 0878 8e7e 526c dd3f
00000140: cd5f 3ce1 0cfe d43f 1387 2955 895d d2bf
00000150: b79b 39a3 aa56 ebbf 0f96 8466 e58c a0bf
00000160: fcf4 e530 e509 9fbf 5835 6860 f7a0 d13f
00000170: 2557 de99 2dc4 b7bf f87b 1666 545a cd3f
00000180: 6dc1 7435 229f e03f 0bca 9eb4 542a bfbf
00000190: 42a7 b9f2 d6a8 e43f 8ee9 72b8 82a5 bdbf
000001a0: e4e1 d2ea 5576 d3bf f45f b3dd faf5 b4bf
000001b0: 5879 602e 078f d43f 80fe 1421 e8a4 d9bf
000001c0: 5427 5c97 e5e7 c9bf da2d 1747 c2ce b33f
000001d0: a77e 0d3b 96d7 cabf a791 08af 146e c53f
000001e0: 4b1e 16eb 0bd2 d4bf 6755 4042 f39b cfbf
000001f0: 9a87 6b74 1a3d bb3f f715 df86 9dc5 e23f
00000200: 7ca0 d283 8d05 df3f 34f8 ab30 23f4 de3f
00000210: 4cdf 842a 4ee0 d9bf cd97 4cd3 d7e3 c8bf
00000220: fbdf 67ea 9f3a 99bf ddc0 14d1 60b1 a9bf
00000230: 2ac1 4ae4 9147 d13f aeb5 6847 231e d33f
00000240: 50b9 c54b 0031 b13f 191c 1628 fe02 c23f
00000250: 2b93 2282 00a0 b93f dafd 050c 27a0 b73f
00000260: a1ea de7c f484 c83f 680f 0054 2274 ce3f
00000270: 5fab bffd 81d4 c6bf 28aa d4c6 4844 c63f
00000280: ef85 65af 880f 963f 9768 5c00 1fb1 c4bf
00000290: 5828 1e02 12de aabf 7e39 3690 2deb 9c3f
000002a0: bb53 6cf0 666b d0bf 49fc 4453 79ef cb3f
000002b0: 360a 5aee 2cde d93f 1c81 cd30 a775 d5bf
000002c0: 7287 292c b864 e3bf 5646 f526 fb90 e53f
000002d0: 182c 8cb7 2bd7 c6bf 046f e2a9 afab 87bf
000002e0: d7b2 2349 81ca e03f 7570 022b 21e5 c63f
000002f0: cdbd d225 85b3 cc3f 2b97 77f7 50f9 c6bf
00000300: 4b17 3aeb 1bb6 da3f 7174 ec6e 1567 b1bf
00000310: b6cc b945 b8a8 cabf dcdd 81a3 1c08 d7bf
00000320: 441e 05ac a051 ecbf 2231 9a35 0844 d2bf
00000330: 3d7d 5267 dc35 c23f 9bd5 f76b 6f4f d0bf
00000340: 2221 64de 4b73 d13f 3b37 82a2 0c54 d63f
00000350: 06a2 da7a 82dc f23f f372 f84d 4b10 d6bf
00000360: a428 6fcf 0098 b03f 3e88 d8d9 9cd9 b53f
00000370: aecb f5c1 7fb7 ccbf 2b06 d991 d557 9e3f
00000380: cb5d 2ffd 5abb c9bf e9ea 78a6 122e d3bf
00000390: 1ec5 5527 84d1 f1bf 506d 86b3 f496 e2bf
000003a0: 3d53 1ad3 bede e03f b6ea 5e9a 57a2 823f
000003b0: 8fbc 114b 3987 d5bf f562 c808 3547 f03f
000003c0: e79d d53e c22c e9bf 0cb8 9629 91c7 ccbf
000003d0: 737d ab2c 06be e3bf 290a 5e52 7d2c dabf
000003e0: 1fe1 5826 8365 adbf 1f70 f74e 9262 e1bf
000003f0: f815 345a 0d23 ca3f ddc9 e03f 75f5 cb3f
00000400: f821 5e9d ff5d b0bf 0559 60b9 26c7 c2bf
00000410: a05a ac50 2cd4 d13f 480a 24af 7715 d5bf
00000420: b6d6 e67b 5682 ca3f 7413 8033 4b9b c1bf
00000430: e40a 4b86 67a1 943f 0846 5bd6 6c9a c43f
00000440: 064c 9ace a636 cabf 8566 a378 15fc cabf
00000450: 5a04 94e3 4b02 af3f 673c a83e 4d45 e6bf
00000460: 1285 7de6 cfc2 e73f 4606 c89d 4577 d0bf
00000470: caf3 c38f 5c3a d03f 1e13 3f2a a65d c53f
00000480: a05b 45b6 74c8 e73f 8a7c acdd d998 c33f
00000490: a17a d846 c98c d3bf ccb1 a132 5f02 8ebf
000004a0: 43cb 368d a59d d3bf fb65 a648 c86d d4bf
000004b0: 6d82 3b52 dfff cd3f d690 7104 ff54 8bbf
000004c0: e291 9a07 3dd2 d4bf e177 f79d 2e8c c13f
000004d0: f6cb f6b8 bad5 e4bf ceb2 e6f5 0f32 c0bf
000004e0: b677 560b 8a47 dbbf cde6 05e8 7b5d d93f
000004f0: 9336 c1de 7595 a9bf a5c7 048e 1bb6 cf3f
00000500: 285d 2945 5083 aebf 3f3e fc59 9abd d03f
00000510: 4ba1 7fbc 2469 63bf 490d b594 cf4d 803f
00000520: c672 7246 939a e83f 3f62 4540 07f2 91bf
00000530: a25f b342 82ad d5bf 607c 934c cc8a c33f
00000540: ce4d 28cd d33e d13f 7f1b b8d8 8270 e9bf
00000550: 28d1 9981 d44e e33f c097 9c1a e038 bb3f
00000560: 2de2 479a 519e ca3f 2390 5b88 2ba2 b33f
00000570: 0a5c c89a d60a c73f e864 21b3 291d 8b3f
00000580: 74f6 2673 d72a d6bf 41fa 96ad 5eac cabf
00000590: 9542 2a23 d227 c03f c572 6d3d 02fd d3bf
000005a0: 1085 c639 2d4d d4bf 7ecc 93ad 8d46 ce3f
000005b0: b182 b265 48d3 c5bf 4c57 745c 1f4f d0bf
000005c0: e184 7b19 a2a9 b2bf 9650 222d ede1 d8bf
000005d0: 589b b4dd 8201 c63f e98e 1e0d 9407 d03f
000005e0: 5b7e 8003 2bc5 ca3f 710e 843e 2832 c93f
000005f0: c5da ea7d 9aa4 d4bf 38c3 1e0c 970c cf3f
00000600: 4f55 1c32 af28 cbbf 537e 3aed 0d44 ccbf
00000610: b938 9b6c 0c15 e0bf 0922 668a ffd8 9b3f
00000620: 1899 a390 4fc6 cc3f 7717 dede f686 cbbf
00000630: 46cb b6a6 aaf6 d63f b152 8160 8fba df3f
00000640: 9a81 7f4c 504b c3bf 172a 889a 127c e13f
00000650: 0204 b7de 83a1 ca3f 86c0 7ff9 d92e e63f
00000660: 27d7 4699 8d09 c4bf 7a37 6b76 a019 e53f
00000670: 904f cd15 cbcb d1bf 4b48 232b 3274 dbbf
00000680: 0df2 7888 805d d73f a3ad 474e 5399 c1bf
00000690: 39f5 95e9 fd2a e23f 78da 7be4 4cd3 8d3f
000006a0: a696 8dc5 5444 df3f 42d3 5d14 ffad d6bf
000006b0: 3498 f352 fe68 cdbf 2e00 9942 449d c7bf
000006c0: f6df 427a 8f50 ca3f 10b5 21e0 929f bfbf
000006d0: bc2e ed9e 7b2e c43f f877 b05e 45b8 b63f
000006e0: 1f4e b528 6dac a9bf c2c7 1221 fe95 d5bf
000006f0: 65a3 ff19 89c2 cdbf 0a20 e125 a3b0 79bf
00000700: 5e5f 08d9 6890 cbbf 65be 7e18 8c5a cf3f
00000710: bfff 82b3 d626 a0bf 3b78 c193 ce72 a73f
00000720: eb5a e2c9 8b2c dabf e762 73a8 d915 e53f
00000730: b914 67ca adf7 9b3f cff6 0d79 8d50 b43f
00000740: e4da 8af5 54a2 dabf c161 3b18 0a89 a93f
00000750: d0dc 8d77 9a98 84bf 638c bded 2003 b23f
00000760: 0c29 1103 cb2b d3bf 6734 912a 07a9 d63f
00000770: cab8 ca0f c13d d93f c4aa 91db 8852 b43f
00000780: 2ba4 3188 115b c6bf 0aaa c5cd 11db c0bf
00000790: 7492 7422 b323 cdbf 1bf7 e86f 2ac6 b2bf
000007a0: 3710 d0dd 12fd d6bf 0342 db37 b8c6 d63f
000007b0: f56a 2ba4 4c1b d6bf 0f48 63db 2eeb c5bf
000007c0: 410b 8b03 a075 c13f fde2 83a0 277e e13f
000007d0: cef1 264b 474d e93f 6cf2 bdc2 3068 ddbf
000007e0: 2723 e9c1 cde2 e0bf ac06 5f79 b9ea e0bf
000007f0: 0284 d848 89ac ae3f 91f5 8c9d aa91 eebf
